Exercise 4/input.pt (torch_old, 584456 bytes, 11 tensors)

weight f4 [100, 100]
0	0x3e43bfa0	0.19116068
1	0x3f7c5164	0.9856169
2	0xbebdc8a7	-0.37067148
3	0xbf80eee8	-1.0072908
4	0xbec4d487	-0.38443395
5	0x3f35eef9	0.7106777
6	0x3ef265ef	0.47343394
7	0x3f2bc723	0.67100734
8	0xbf78110b	-0.96901006
9	0xbeb43347	-0.35195372
10	0x3edff768	0.43743443
11	0x3c97e8a8	0.018543556
12	0x3fc6dfa3	1.5536999
13	0x3f74a961	0.9557095
14	0x3c26c465	0.01017866
15	0x3f35f45b	0.7107598
16	0x3f575476	0.8411325
17	0x3d3112d3	0.043230843
18	0xbe539f29	-0.20666184
19	0x3c299377	0.0103501
20	0x3f38bdfc	0.72164893
21	0xc04deed4	-3.217702
22	0x3f9a4643	1.2052692
23	0x3e628811	0.22122218
24	0x3fa96eb8	1.3236914
25	0x3fc5f4df	1.5465354
26	0x3e1461c7	0.14490424
27	0x3f9048d2	1.1272223
28	0x3fbe8e85	1.4887244
29	0x3f0ed81a	0.55798495
30	0x3ea843af	0.32864138
31	0x3e22a39f	0.15882729
32	0xbe58d436	-0.21174702
33	0x3f009265	0.5022338
34	0xbec978fb	-0.39350113
35	0x3feba745	1.8410422
36	0x3f54d6fb	0.83140534
37	0x3ee7a460	0.45242596
38	0xbebe2e66	-0.37144774
39	0xbe406cff	-0.18791579
40	0x3ee0e0fb	0.43921646
41	0xbf7fde94	-0.99949
42	0x3f800cf1	1.0003949
43	0xc081cf60	-4.0565643
44	0xbed665ef	-0.41874644
45	0x3f574331	0.840869
46	0xbf2e1b18	-0.6801009
47	0x3f9b793c	1.2146373
48	0x3f920319	1.1407195
49	0x3f43c50a	0.7647253
50	0xbf465a21	-0.77481276
51	0xbf635ae1	-0.88810545
52	0xbeb1aaf8	-0.3470075
53	0xbe3b4794	-0.18289024
54	0x3da77cb9	0.08178086
55	0xbf9ed875	-1.2409807
56	0xbf9394b0	-1.1529751
57	0x3e7eb3d0	0.2487328
58	0x3f7be901	0.9840241
59	0xbfa5807c	-1.2929835
60	0xbf7305a3	-0.94930476
61	0x3f8e9b41	1.114113
62	0xbedb97c4	-0.42889225
63	0xbf984c5e	-1.1898305
64	0x3d910486	0.07080941
65	0xbe898dd6	-0.26866025
66	0xbf75c545	-0.96004134
67	0xbf46e675	-0.776954
68	0x3e672c52	0.225755
69	0x3eecd25b	0.46254238
70	0xbf9946ce	-1.1974733
71	0xbe71406b	-0.2355973
72	0xbe7dccae	-0.2478511
73	0xbeb4d557	-0.35319015
74	0xbf8df950	-1.1091709
75	0xbee2c87a	-0.44293576
76	0xbf5d439c	-0.8643129
77	0xbed3799c	-0.41303718
78	0x3f516430	0.817935
79	0xbf3df021	-0.7419453
80	0xbfd3025c	-1.6485095
81	0xbee2c800	-0.44293213
82	0x3fe09301	1.7544862
83	0xbd5a03f4	-0.053226426
84	0x3ea44a0e	0.3208775
85	0xbe333365	-0.17500074
86	0xbeea25a0	-0.4573183
87	0x3f05fb40	0.523365
88	0xbf94b2d5	-1.1617075
89	0x3f56f759	0.8397117
90	0xbcd23a8c	-0.025662683
91	0x3e3f02a0	0.18653345
92	0x3ea72894	0.32648146
93	0xbf28963f	-0.6585426
94	0xbf5dc5a5	-0.86629707
95	0xbd338489	-0.043827567
96	0xbd721027	-0.059097435
97	0x3f9d5393	1.229113
98	0xbffb9306	-1.9654243
99	0xbf5417dc	-0.82848907
100	0x3f149f5d	0.5805567
101	0x3eb6c0e9	0.35694054
102	0xbfa8c15f	-1.3184012
103	0xbf48843a	-0.7832676
104	0xbf314247	-0.69241756
105	0xbf59f6e2	-0.8514234
106	0xc00caea9	-2.1981604
107	0xbf8106df	-1.0080222
108	0x3fecaa4c	1.848947
109	0x3ea3e116	0.32007664
110	0x3f1733a9	0.590632
111	0xbf74728d	-0.9548729
112	0xbf61b6c8	-0.8816953
113	0xbf75ab19	-0.959642
114	0xbec0b1bb	-0.37635598
115	0x3f299f06	0.66258276
116	0x3fc42df6	1.5326526
117	0x3d14267f	0.036169525
118	0xbf8a18b2	-1.0788786
119	0x3f2592f8	0.6467738
120	0x3fb31dbc	1.3993449
121	0x3eb4ed5d	0.35337344
122	0xbe4a724e	-0.19770166
123	0x3efd63fd	0.49490348
124	0xbe9e89cc	-0.30964506
125	0xbe3f5f61	-0.18688728
126	0xbf3ff9cb	-0.7499053
127	0xbf9d851e	-1.2306249
128	0x3f95e493	1.171038
129	0xbf4f4559	-0.8096519
130	0xbec5da32	-0.38643032
131	0x3d80f681	0.06297017
132	0xbfe163bb	-1.760856
133	0x3e60ad69	0.2194115
134	0xbeb41ba3	-0.35177335
135	0x3f490100	0.7851715
136	0x3ef64249	0.48097447
137	0xbf34e683	-0.7066423
138	0x3edea471	0.43484834
139	0xbf194c6c	-0.59882236
140	0xbf89cbac	-1.0765281
141	0xbf844858	-1.0334578
142	0x3fce7036	1.6127994
143	0x3f855965	1.0417906
144	0xbfd89a71	-1.6922132
145	0xbf23ae62	-0.6393796
146	0x4020efd8	2.514639
147	0xbf4d3b57	-0.8016867
148	0x3e88fd78	0.2675588
149	0xbefab451	-0.48965696
150	0x3f40e1cd	0.75344545
151	0x3ab46563	0.0013763126
152	0xbfa77daa	-1.3085225
153	0x3e815394	0.25259078
154	0xc0386037	-2.8808725
155	0xbd87e3e0	-0.066352606
156	0xc002eede	-2.0458293
157	0xbfe356b7	-1.7760838
158	0xbebba1bc	-0.3664683
159	0xbfac27ed	-1.3449684
160	0x3f04f361	0.51933867
161	0x3f6b6f2a	0.919665
162	0xbfa3173a	-1.2741463
163	0xbf29b0b0	-0.6628523
164	0xbf8462bd	-1.0342633
165	0xbf3396a0	-0.7015171
166	0x3f8e8917	1.1135587
167	0x3d9e98bd	0.07743976
168	0x3f7ae9e5	0.98013145
169	0xbd40db6e	-0.047084264
170	0x3fc2cab7	1.5218114
171	0xbff263b3	-1.8936676
172	0x3e6f4535	0.23366244
173	0x3f64e311	0.89408976
174	0xbf709fd9	-0.9399391
175	0xbeedf30c	-0.46474493
176	0xc00c8d9f	-2.1961439
177	0xbf988b4e	-1.1917512
178	0x3efc4255	0.49269357
179	0xbf111118	-0.5666671
180	0xbf70e155	-0.9409383
181	0x3fbb2d63	1.4623226
182	0x3f07e528	0.5308404
183	0x3e99b010	0.30017138
184	0x3f9b204e	1.2119234
185	0x3cdbc228	0.02682598
186	0x3f0e14ec	0.55500674
187	0x3fcbb0e2	1.5913355
188	0x3f6e9544	0.9319651
189	0xbf68f1d7	-0.9099402
190	0xbf235754	-0.6380513
191	0x3f306830	0.6890898
192	0xbf06f468	-0.52716684
193	0xbea23b87	-0.3168604
194	0xbfbae682	-1.4601595
195	0x3fe64007	1.798829
196	0x3f88e36a	1.0694401
197	0xbfab5ee5	-1.3388335
198	0xbe586d61	-0.21135475
199	0xbea80b89	-0.328213
200	0xbecc6fe7	-0.39929125
201	0xc012cbc7	-2.2936876
202	0x3f4f012a	0.8086115
203	0xbf45b20b	-0.77224797
204	0x3f8ad366	1.0845764
205	0x3e00a530	0.12563014
206	0x3f3ea92a	0.74476874
207	0x3ebce10f	0.36890456
208	0xbeb5c2c0	-0.35500145
209	0x3f7c0808	0.98449755
210	0xbf6353ab	-0.8879954
211	0xbf4116a5	-0.7542518
212	0xbeea0c90	-0.4571271
213	0xbec4ecf8	-0.38462043
214	0x3f86265c	1.0480456
215	0x3eca12bd	0.3946742
216	0xbe38f0f6	-0.1806067
217	0xbf07bebe	-0.53025424
218	0xbf078f06	-0.5295261
219	0x3ed7ced0	0.42149973
220	0xbfd72f15	-1.6811243
221	0xbf8ca9e2	-1.0989344
222	0x3fc45e03	1.534119
223	0xbdc6f6b9	-0.09715027
224	0xbf2e6fd7	-0.68139404
225	0x3fd52da8	1.6654558
226	0xbf68b239	-0.90896946
227	0xbe6053aa	-0.21906915
228	0xbf8448f1	-1.033476
229	0xbf2dc6bb	-0.67881364
230	0xbf7b0376	-0.98052156
231	0x3f164b40	0.5870857
232	0xbf8cc82f	-1.0998591
233	0xbf621f40	-0.88328934
234	0xbeeadaad	-0.4586996
235	0xbf264f8b	-0.6496512
236	0xbe5bfa3f	-0.2148218
237	0xbfb3f36c	-1.4058661
238	0xbf15cc8f	-0.58515257
239	0xbebe0b24	-0.37117875
240	0xbf1375fa	-0.5760189
241	0xbeddb398	-0.43301082
242	0x3fa57b70	1.2928295
243	0xbfa798f3	-1.3093551
244	0x3f0970a1	0.53687483
245	0x3e5594fe	0.20857617
246	0xbf20c392	-0.62798417
247	0x3ecfcd1f	0.40586182
248	0x3fab7ce1	1.3397485
249	0xbeaffe01	-0.34373477
250	0xbf030d57	-0.5119223
251	0x3f1d2627	0.6138634
252	0x3f885e32	1.0653746
253	0x3fb92f57	1.4467572
254	0xbfe8ffe8	-1.8203096
255	0xbeb8961b	-0.3605202

weight_ih_l0 f4 [300, 100]
0	0x3c364800	0.011125565
1	0x3eb7f69f	0.35930344
2	0xbe817cd5	-0.25290552
3	0xbeaa872c	-0.33306253
4	0xbe834e72	-0.25645787
5	0xbe8fa0f2	-0.2805248
6	0xbdc33ed0	-0.09533465
7	0x3ee785b8	0.45219207
8	0xbead71de	-0.33875936
9	0xbe7ac081	-0.24487497
10	0xbe53fdab	-0.20702235
11	0xbf9992c4	-1.1997914
12	0xbe174bd8	-0.14775026
13	0x3f30f3e8	0.6912217
14	0x3e260d05	0.16215904
15	0xbe687cfd	-0.22703929
16	0x3e36307b	0.17791931
17	0xbe496bb5	-0.19669993
18	0xbf34002f	-0.7031278
19	0xbef0c88f	-0.47028014
20	0xbe9a633c	-0.30153835
21	0xbefd6b55	-0.4949595
22	0x3ee988d6	0.4561221
23	0x3e3e6de7	0.18596612
24	0x3e9c1f85	0.30492797
25	0xbe43806d	-0.1909196
26	0x3e863599	0.26212767
27	0xbe4d6d42	-0.2006121
28	0xbee30aed	-0.44344273
29	0x3f8898d2	1.0671637
30	0x3f194249	0.5986677
31	0x3e09e5fa	0.13466635
32	0x3dfd74a3	0.12375762
33	0xbdb81390	-0.08988106
34	0x3e981488	0.29703164
35	0x3d870795	0.06593243
36	0xbf462152	-0.7739459
37	0x3f8df1bc	1.1089396
38	0x3eaf1fb6	0.3420388
39	0xbf538dfc	-0.82638526
40	0xbdaa5049	-0.083160944
41	0x3e4a02de	0.19727656
42	0x3f1d1e10	0.61373997
43	0x3e22dea9	0.1590525
44	0x3d392ec3	0.04521061
45	0xbf1942a3	-0.59867305
46	0xbf288000	-0.6582031
47	0x3f308cd0	0.6896486
48	0x3ecea495	0.4035994
49	0x3d0f2d98	0.03495559
50	0x3e539dbe	0.20665643
51	0x3c4ae78b	0.012384306
52	0x3f50aa82	0.81510174
53	0x3e3db36f	0.1852548
54	0x3f4186b1	0.7559615
55	0x3f11f04e	0.570073
56	0xbd5d1bd2	-0.05398161
57	0x3f1c0797	0.6094908
58	0xbf5d905c	-0.865484
59	0xbf3bd404	-0.73370385
60	0xbe876b79	-0.26449183
61	0x3e917f02	0.28417212
62	0xbe375434	-0.17903215
63	0x3eb40114	0.35157073
64	0x3f576b2e	0.8414792
65	0xbe94e8e1	-0.29083923
66	0xbf7828cf	-0.9693727
67	0x3ebab129	0.36463287
68	0xbf1fddff	-0.62448114
69	0x3ef72284	0.4826852
70	0x3f2df80c	0.67956614
71	0x3f15b10c	0.5847328
72	0xbf398245	-0.724644
73	0xbf639280	-0.88895416
74	0xbe8d4c3b	-0.27597222
75	0xbe082031	-0.1329353
76	0x3e1a9a9f	0.15098046
77	0xbee103f5	-0.4394833
78	0x3e7b32eb	0.24531142
79	0x3e0f9144	0.14020258
80	0xbd6841e4	-0.056703463
81	0xbe512d36	-0.20427403
82	0x3f1ae2bd	0.60502225
83	0xbd3df5f9	-0.046377156
84	0xbf28bf98	-0.6591735
85	0xbe7a2ba0	-0.24430704
86	0xbeac0271	-0.33595613
87	0xbf2aadc8	-0.6667142
88	0x3e2505b1	0.16115452
89	0xbde7be61	-0.11315609
90	0xbf2bbb65	-0.67082816
91	0xbeac7eb3	-0.33690414
92	0xbe1add7a	-0.15123549
93	0x3f3eada0	0.7448368
94	0xbdf5d928	-0.1200431
95	0x3f0aa848	0.54163027
96	0xbdf043fe	-0.117317185
97	0xbd00dbb8	-0.03145954
98	0x3e456b58	0.1927923
99	0x3ec77088	0.38953042
100	0xbd9b6fd1	-0.07589687
101	0x3db0cf47	0.08633285
102	0xbe60c7c0	-0.21951199
103	0xbf14144a	-0.5784346
104	0xbf9088a9	-1.1291705
105	0x3e671edb	0.22570364
106	0xbef28a2b	-0.4737104
107	0x3f16a4df	0.58845323
108	0x3eab34d2	0.33438736
109	0x3f399c6a	0.72504294
110	0x3ede1d43	0.433817
111	0xbf37cbe8	-0.7179551
112	0x3e220b41	0.15824606
113	0xbdff38ac	-0.12461981
114	0x3ef8edbb	0.48618874
115	0x3d560c22	0.052257665
116	0xbcc20975	-0.02368615
117	0xbec5c919	-0.38629988
118	0xbe83b26b	-0.2572206
119	0xbded3529	-0.11582405
120	0x3dd09b97	0.101859264
121	0xbe928fda	-0.28625375
122	0xbe1478ce	-0.14499208
123	0x3df95276	0.12173931
124	0x3e31725e	0.17328784
125	0xbeb2e192	-0.34937721
126	0xbea0b6e1	-0.31389526
127	0xbc33bc4b	-0.0109701855
128	0x3e0781d3	0.13233118
129	0x3ef49f96	0.47778004
130	0x3d6a4d53	0.05720265
131	0x3dd1258f	0.10212242
132	0xbe3e23f0	-0.18568397
133	0xbcb2d742	-0.021831159
134	0x3f25d913	0.64784354
135	0xbf0a0425	-0.53912574
136	0xbea060c9	-0.3132384
137	0xbe913586	-0.28361148
138	0x3a9f24b0	0.0012141671
139	0xbed260d1	-0.4108949
140	0x3eb233b0	0.3480506
141	0xbf03d044	-0.51489663
142	0xbe709649	-0.23494829
143	0x3d6464f2	0.05576033
144	0x3b32f406	0.0027306094
145	0xbf41b277	-0.7566294
146	0x3df9b594	0.121928364
147	0xbf5e5aa4	-0.86857057
148	0xbe8a59f4	-0.27021754
149	0xbdb0ef05	-0.08639339
150	0xbe890fe5	-0.2676994
151	0x3ebff833	0.37494048
152	0xbec793fe	-0.38980097
153	0x3da39991	0.07988275
154	0x3eaf91ef	0.34291026
155	0xbe24519f	-0.16046761
156	0x3ec438c7	0.38324568
157	0x3f2d532c	0.67705035
158	0x3dcd4424	0.100227624
159	0xbe16a902	-0.14712909
160	0xbf01284e	-0.50452125
161	0xbe5028d9	-0.20328082
162	0xbe883e2f	-0.26609942
163	0x3ed83710	0.4222951
164	0x3c28d8bb	0.010305579
165	0x3e230fd6	0.1592401
166	0xbefd7ceb	-0.49509367
167	0x3dfe5f20	0.124204874
168	0x3e6e402a	0.23266664
169	0x3f0e6a0a	0.5563055
170	0xbf04575c	-0.516958
171	0x3f18d58d	0.5970085
172	0xbf4fce56	-0.8117422
173	0x3e1d5166	0.15363082
174	0xbf1b5e2b	-0.60690564
175	0xbda14de6	-0.07876186
176	0x3f7075fd	0.93930036
177	0x3d965115	0.07339684
178	0xbf12e125	-0.57374793
179	0xbe777c31	-0.24168469
180	0xbd8839d7	-0.06651657
181	0xbe9be545	-0.30448356
182	0x3e9f82ae	0.31154388
183	0xbf122e0d	-0.5710152
184	0xbf128d63	-0.5724699
185	0xbf1ef28a	-0.62088835
186	0xbca04482	-0.019563917
187	0xbdaabf5e	-0.08337282
188	0xbea1411f	-0.31494996
189	0xbdc785eb	-0.0974234
190	0xbe3d3251	-0.18476225
191	0x3f4e5078	0.80591536
192	0x3d6418ae	0.0556876
193	0x3d1127f2	0.035438485
194	0x3e8f5ff9	0.2800291
195	0x3e224589	0.15846838
196	0xbf84b453	-1.036753
197	0x3ee52978	0.447582
198	0x3f4cbb6d	0.7997349
199	0xbe50d5a4	-0.20393997
200	0x3eb15489	0.34634808
201	0x3e13478e	0.14382765
202	0x3f0b662a	0.54452765
203	0xbf072cea	-0.5280291
204	0xbe39cdd2	-0.1814492
205	0xbf0e06b9	-0.5547901
206	0x3f53a6c8	0.82676363
207	0x3ecf7dfc	0.40525806
208	0xbd79cb7b	-0.06098507
209	0x3f0a01ec	0.5390918
210	0xbe300ffb	-0.17193596
211	0xbf900be0	-1.1253624
212	0xbf0665ea	-0.5249926
213	0x3eaad9f3	0.33369407
214	0x3eb14d31	0.34629205
215	0xbce15035	-0.027504066
216	0xbe17e659	-0.14833964
217	0x3ec0ba47	0.37642118
218	0x3ed54e1d	0.41661158
219	0xbe1d3fb2	-0.15356329
220	0xbece1ea4	-0.40257752
221	0xbecee2eb	-0.404075
222	0xbd86033c	-0.06543586
223	0x3cc0cc3a	0.023534883
224	0x3eb7da6f	0.3590884
225	0xbf2ea944	-0.6822703
226	0x3d46264d	0.04837637
227	0x3e83fbe5	0.25778118
228	0x3d137e68	0.036009222
229	0x3dcd57a9	0.100264855
230	0xbc3dd834	-0.011587191
231	0x3ba11687	0.0049160155
232	0xbecc46b8	-0.39897704
233	0xbf26c23c	-0.6514013
234	0xbf01d598	-0.50716543
235	0x3dee3931	0.11632002
236	0xbf54612c	-0.8296077
237	0x3e9f5854	0.31122077
238	0xbddd60fb	-0.10809513
239	0x3e61b2b1	0.22040822
240	0x3db291c6	0.0871921
241	0xbf298c9e	-0.6623019
242	0xbe1e0e77	-0.15435205
243	0x3ff6bd3b	1.9276499
244	0xbe88ec94	-0.26742995
245	0x3e05ab6c	0.13053674
246	0xbf4f9f02	-0.81102
247	0x3e2c159e	0.16805121
248	0x3da081e7	0.07837277
249	0x3d275780	0.04085493
250	0xbea87955	-0.3290507
251	0xbe21d1cc	-0.15802687
252	0xbe8f88d5	-0.28034082
253	0xbde6e1ab	-0.112735115
254	0x3ec3a4ee	0.3821177
255	0x3d9a92ac	0.07547507

weight_hh_l0 f4 [300, 100]
0	0xbecf5be6	-0.404998
1	0xbf266e72	-0.65012276
2	0xbf7932be	-0.9734305
3	0xbedb5445	-0.4283773
4	0x3cc1741c	0.023614936
5	0xbf0ad48f	-0.5423059
6	0xbefbb2b0	-0.49159765
7	0xbee831d1	-0.45350507
8	0x3e02b52c	0.12764424
9	0x3efa9382	0.48940665
10	0x3f0937f2	0.5360099
11	0xbf0b0d5d	-0.54317266
12	0xbf6dc920	-0.9288502
13	0x3e906e60	0.2820921
14	0xbe2ebb35	-0.17063601
15	0xbeb24056	-0.3481471
16	0x3f0a8a8b	0.5411765
17	0x3ec5e21a	0.38649064
18	0xbe1fd068	-0.15606844
19	0x3ef44965	0.47712246
20	0xbf3f9295	-0.7483304
21	0xbf98a2d3	-1.192469
22	0xbedf16ac	-0.43571985
23	0x3ec7a2eb	0.38991484
24	0x3e961446	0.29312342
25	0xbc90f6ce	-0.01769581
26	0xbee38d05	-0.44443527
27	0xbfaa5dcd	-1.3309876
28	0xbe69c399	-0.22828521
29	0xbec06131	-0.3757415
30	0x3d835b4a	0.064138964
31	0xbeb73dd5	-0.35789362
32	0x3f36a3a4	0.71343446
33	0xbe546b29	-0.20744003
34	0x3e30db2b	0.17271106
35	0xbead06fd	-0.33794394
36	0x3d4f3f8c	0.050597712
37	0xbe4cedc4	-0.20012575
38	0xbf5dc66b	-0.86630887
39	0x3c54271c	0.0129487775
40	0xbf1f3fd5	-0.62206775
41	0x3eeed845	0.46649376
42	0x3dc289e2	0.09498955
43	0x3f4b4f95	0.7941831
44	0xbecae8ad	-0.39630643
45	0xbf11824d	-0.5683945
46	0xbf0a60b3	-0.540538
47	0xbe743460	-0.23848104
48	0xbefd926b	-0.4952577
49	0x3dd5ab4a	0.104330614
50	0x3e84bd44	0.25925648
51	0x3e37b404	0.17939764
52	0x3ce8dc10	0.028425246
53	0xbe7ff450	-0.24995542
54	0xbe33446c	-0.1750657
55	0x3e53d097	0.2068504
56	0xbd6a3bdc	-0.057185993
57	0x3f0bb0ab	0.5456645
58	0x3f00b7af	0.5028028
59	0x3d03c88c	0.03217368
60	0xbf2ca413	-0.6743786
61	0x3d5e7e87	0.054319885
62	0x3e6d0660	0.23146963
63	0xbd2fc119	-0.04290876
64	0xbf3ca764	-0.7369292
65	0xbf02b9f4	-0.5106499
66	0xbf4b80ae	-0.79493225
67	0x3eb6e59a	0.35722047
68	0x3e8fe986	0.28107852
69	0x3f0bf263	0.5466673
70	0xbe2586d0	-0.16164708
71	0x3cafbb59	0.021451639
72	0xbf62b736	-0.8856081
73	0x3d9d7e1d	0.0769007
74	0xbeafda25	-0.3434612
75	0xbf1a453a	-0.6026188
76	0x3e6615a2	0.2246919
77	0x3f21bd37	0.63179344
78	0xbc2ed81d	-0.010671643
79	0xbe046ea0	-0.12932825
80	0xbde90fa9	-0.1137994
81	0xbe332208	-0.1749345
82	0x3e815200	0.25257874
83	0x3e151b48	0.14561188
84	0x3f5bb11a	0.8581711
85	0xbf65af13	-0.8972027
86	0x3f44750e	0.7674111
87	0x3db830a3	0.08993652
88	0x3e588ff1	0.2114866
89	0x3f899960	1.0749931
90	0x3f3da9aa	0.7408701
91	0xbaac5498	-0.001314777
92	0x3f6b2755	0.9185689
93	0x3f36ecc9	0.71455055
94	0x3ebc1752	0.36736542
95	0x3e10f832	0.14157179
96	0xbecba528	-0.39774442
97	0x3ec9a659	0.39384726
98	0x3e837379	0.25674036
99	0xbca5b070	-0.020225734
100	0x3f6a263f	0.9146461
101	0xbeabb9f1	-0.335403
102	0xbe4eee8e	-0.20208189
103	0xbe9d2280	-0.30690384
104	0x3d74af0b	0.059737246
105	0xbe1f6f04	-0.15569693
106	0xbf117d7b	-0.56832093
107	0xbf985768	-1.1901674
108	0xbf303951	-0.6883746
109	0xbd86c966	-0.065813825
110	0xbf226fa6	-0.6345161
111	0xbe6b3c4b	-0.22972219
112	0xbc949bee	-0.01814076
113	0xbef57db0	-0.47947454
114	0xbfa3322d	-1.2749687
115	0xbf28353b	-0.65706223
116	0x3f0224a4	0.5083716
117	0x3ea5b810	0.3236699
118	0xbf99ec0d	-1.2025162
119	0x3df22884	0.11824134
120	0xbfeef28d	-1.8667771
121	0x3e884b26	0.26619834
122	0x3ea13260	0.31483746
123	0xbe0db720	-0.13839388
124	0xbe746beb	-0.23869292
125	0xbdc42135	-0.09576646
126	0xbf55e5bb	-0.83553666
127	0xbf70fbbd	-0.9413412
128	0xbea4bde0	-0.32176113
129	0x3d67bd24	0.056576863
130	0x3a84d2d0	0.0010133628
131	0x3fa767dd	1.3078572
132	0xbf917482	-1.136368
133	0x3ef970b7	0.48718807
134	0x3df164b8	0.11786789
135	0xbeac80f5	-0.33692136
136	0xbf87cdf1	-1.0609723
137	0xbf2189ad	-0.631007
138	0xbf1e72a4	-0.6189368
139	0xbda216fd	-0.07914541
140	0xbd3ca448	-0.04605511
141	0xbe957a5a	-0.2919491
142	0xbdcf89e6	-0.10133724
143	0xbda2f8ee	-0.07957636
144	0x3d52cde5	0.051465888
145	0x3f90d4b8	1.1314917
146	0xbec5223f	-0.3850269
147	0xbeb3c953	-0.35114536
148	0xbf2576e1	-0.6463452
149	0x3e6cbcc6	0.23118886
150	0xbeccc2c7	-0.39992353
151	0x3f0a9e2e	0.54147613
152	0x3eed35f1	0.46330217
153	0x3e340199	0.17578734
154	0xbc0c29a7	-0.008554853
155	0x3e49eec9	0.19719996
156	0x3edef35a	0.43545038
157	0xbef2578a	-0.47332412
158	0x3ec29f7b	0.380123
159	0xbe1c6fca	-0.15277019
160	0xbe631506	-0.22175989
161	0x3f09edb6	0.53878343
162	0xbe10cd8a	-0.14140907
163	0x3f2d515c	0.6770227
164	0x3f0a7359	0.54082257
165	0xbf77ece8	-0.96845865
166	0x3ecfa787	0.405575
167	0xbd71d41e	-0.05904018
168	0x3f86cbc5	1.0530936
169	0xbf56c4e1	-0.83894163
170	0x3e42695b	0.18985502
171	0x3e00f91b	0.12595026
172	0x3e973248	0.2953055
173	0x3fc34735	1.5256106
174	0xbe43f2be	-0.19135568
175	0xbf30a588	-0.6900258
176	0x3ed604a4	0.41800416
177	0x3f0acb9e	0.54216945
178	0xbf7de67a	-0.99179804
179	0xbea50525	-0.32230487
180	0xbf0c5d16	-0.5482954
181	0xbd61e64a	-0.05515126
182	0x3df1897e	0.11793803
183	0xbe9a5704	-0.30144513
184	0xbe912a7a	-0.2835272
185	0x3ea922a7	0.3303425
186	0x3ee00beb	0.43759093
187	0x3ec27ed1	0.37987378
188	0x3fa1eb57	1.2649945
189	0xbec2698b	-0.37971148
190	0x3f834b7f	1.0257415
191	0x3fc889d9	1.5667068
192	0x3f16496c	0.5870578
193	0xbd395112	-0.04524333
194	0xbf2b7ac8	-0.66984224
195	0xbf0fc6d0	-0.5616274
196	0x3de0607f	0.10955905
197	0x3e6ebd35	0.23314364
198	0x3b07cc37	0.0020721087
199	0xbdbf3c03	-0.09337618
200	0xbd427707	-0.047476795
201	0x3ea4388c	0.32074392
202	0xbefaffb8	-0.49023223
203	0xbf046bb2	-0.5172683
204	0x3f874176	1.0566852
205	0xbd3ee40a	-0.046604194
206	0xbebf13d7	-0.37319824
207	0xbf6fbcab	-0.9364726
208	0xbdf614f7	-0.120157175
209	0x3f12c477	0.5733103
210	0xbe66606a	-0.22497717
211	0x3efcfc31	0.49411157
212	0xbe22b003	-0.15887456
213	0xbf72f388	-0.9490285
214	0xbe76fd13	-0.24119978
215	0x3e85a732	0.26104122
216	0xbf5e11ca	-0.86745894
217	0x3eea448c	0.45755422
218	0x3f8763db	1.0577348
219	0xbf316730	-0.69298077
220	0xbdd7c293	-0.10535159
221	0x3ca9da7e	0.020734068
222	0xbebeedd5	-0.37290826
223	0x3e5c252e	0.21498558
224	0x3d96806f	0.073487155
225	0xbea46c66	-0.3211395
226	0xbe5da4b9	-0.21644868
227	0xbd792b8c	-0.060832545
228	0xbec3dfd4	-0.38256705
229	0x3e2f7047	0.17132674
230	0xbe89a709	-0.2688525
231	0x3ed53604	0.41642773
232	0xbe92ef53	-0.28698215
233	0xbde035ab	-0.10947736
234	0xbf45edc3	-0.7731592
235	0xbd04690b	-0.03232674
236	0x3f125066	0.5715393
237	0x3c5b454d	0.013383222
238	0xbce5024a	-0.027955193
239	0x3ec7bd51	0.39011624
240	0x3eb510a4	0.35364258
241	0xbde0bab3	-0.1097311
242	0x3ed3e9ab	0.41389212
243	0xbe6e560e	-0.23275015
244	0x3ee860cd	0.45386353
245	0x3c91cff2	0.017799351
246	0x3f8ccb36	1.0999515
247	0xbf14ec3e	-0.58172977
248	0x3efc1484	0.49234402
249	0xbf85a73a	-1.0441658
250	0xbf0ee602	-0.55819714
251	0xbd5f3bc2	-0.05450035
252	0x3eddd262	0.43324572
253	0xbf5f47f3	-0.8721916
254	0xbf0d10e2	-0.55103886
255	0xbedb89a1	-0.4287844

bias_ih_l0 f4 [300]
0	0xbed3d474	-0.41373026
1	0xbec476c9	-0.38371876
2	0x3ebf1db3	0.37327346
3	0xbe991c76	-0.29904526
4	0xbea6a4ea	-0.32547694
5	0xbeb6fd78	-0.35740256
6	0xbe8083ab	-0.25100455
7	0x3a881844	0.0010383208
8	0xbdd55572	-0.10416688
9	0x3e0a94cf	0.13533328
10	0xbeca2bf7	-0.39486668
11	0xbe2b679c	-0.16738743
12	0xbe4e1a03	-0.2012711
13	0xbe84dd72	-0.259502
14	0x3ca42dbe	0.020041343
15	0xbd93ba10	-0.07213223
16	0xbe55a1d1	-0.2086251
17	0xbea74124	-0.32666886
18	0xbe100e85	-0.14068039
19	0xbe191047	-0.14947616
20	0xbecb4269	-0.39699104
21	0xbdda5240	-0.10660219
22	0xbd3fefdc	-0.046859607
23	0x3ddf1f82	0.108946815
24	0xbe2ed2ec	-0.17072648
25	0xbdc82e6a	-0.09774478
26	0xbe5d704c	-0.21624869
27	0xbda3e6a6	-0.08002977
28	0xbe2519e5	-0.16123159
29	0xbda4e2ef	-0.08051097
30	0xbefa9377	-0.48940632
31	0xbe338875	-0.17532523
32	0xbe8270e2	-0.25476748
33	0xbee78e8e	-0.45225948
34	0xbcc23222	-0.023705546
35	0xbe8ceeda	-0.2752598
36	0xbe9b30be	-0.30310625
37	0xbd15e78f	-0.036597785
38	0xbd2a972d	-0.04164808
39	0x3dc57fe0	0.09643531
40	0xbeb86521	-0.36014655
41	0xbe15fc04	-0.14646918
42	0xbe9e8a8a	-0.30965072
43	0xbdc63834	-0.09678689
44	0x3dc11c90	0.09429276
45	0xbe34b41e	-0.17646834
46	0xbe81a036	-0.25317544
47	0xbd02c5ff	-0.031927105
48	0xbecf58d0	-0.40497446
49	0xbdf96a73	-0.12178507
50	0xbeae2ce9	-0.3401864
51	0xbd893517	-0.06699579
52	0xbe828f13	-0.25499782
53	0x3e44f7d1	0.1923516
54	0xbf06f35f	-0.52715105
55	0xbd431623	-0.047628533
56	0xbf1fad44	-0.6237376
57	0xbe941ab4	-0.28926623
58	0x3e4f89ca	0.20267406
59	0xbdc1b5ec	-0.09458527
60	0xbe930b1b	-0.2871941
61	0xbe8b7298	-0.27235866
62	0x3e13a39e	0.14417884
63	0x3e888b44	0.2666875
64	0x3e2d5fdc	0.16931099
65	0x3e9b6644	0.3035146
66	0x3cf7155a	0.030161548
67	0x3d22c76e	0.039740972
68	0xbe358919	-0.1772808
69	0xbe13c55e	-0.14430758
70	0x3e5f8be8	0.21830714
71	0xbd36109a	-0.044449426
72	0x3e2306cd	0.15920563
73	0xbe97d5aa	-0.296552
74	0xbd91786f	-0.07103049
75	0xbcf88504	-0.030336864
76	0xbe2d835c	-0.16944641
77	0xbe4eb2de	-0.2018542
78	0x3e504c35	0.2034157
79	0x3e589449	0.21150316
80	0xbe5a9eca	-0.21349636
81	0xbeaa25b4	-0.3323189
82	0x3ede233e	0.43386263
83	0xbe66680c	-0.22500628
84	0xbe9f6dcf	-0.31138465
85	0xbe03a472	-0.128557
86	0xbee24216	-0.44191045
87	0x3e3b64d3	0.1830018
88	0xbebae0df	-0.36499688
89	0xbe4b1ce9	-0.19835247
90	0xbea52505	-0.32254806
91	0xbe4157bf	-0.18881129
92	0x3c3125a5	0.010812198
93	0xbd458a3b	-0.04822753
94	0xbed13128	-0.40857816
95	0xbdda85ef	-0.10670077
96	0xbdcd1f86	-0.10015778
97	0xbeadc5da	-0.3394001
98	0xbcda9d64	-0.026686378
99	0x3eb88d8a	0.36045486
100	0xbf130783	-0.57433337
101	0xbe83c2b0	-0.25734472
102	0xbf0dae36	-0.5534395
103	0xbf48a94f	-0.78383344
104	0xbf4b5b03	-0.7943575
105	0xbf137e15	-0.5761426
106	0xbed61d65	-0.418193
107	0x3c5328cd	0.012888146
108	0xbe7059cd	-0.23471756
109	0xbe0ca82f	-0.13736032
110	0xbea1fadf	-0.31636712
111	0xbf4bf6a3	-0.7967321
112	0xbf0376c2	-0.51353085
113	0xbf325db1	-0.6967421
114	0xbe4ec5c4	-0.20192629
115	0xbf2c9460	-0.674139
116	0x3d461fef	0.048370298
117	0xbedc3c1b	-0.43014607
118	0xbfa996a1	-1.3249093
119	0xbe92e563	-0.28690633
120	0x3e89fe3d	0.2695178
121	0xbe8e7986	-0.2782709
122	0xbf2b66d8	-0.669538
123	0xbe024f46	-0.12725553
124	0xbd8ad7a8	-0.067794144
125	0xbf60d1e5	-0.87820274
126	0xbef97eb7	-0.48729488
127	0xbd445e3f	-0.047941443
128	0xbf242dd3	-0.6413242
129	0x3ce862c9	0.028367417
130	0xbe719143	-0.23590569
131	0xbde7e167	-0.11322289
132	0xbe259a8e	-0.16172239
133	0xbf39a474	-0.7251656
134	0xbe99a40e	-0.30007976
135	0xbf1f7e02	-0.6230165
136	0xbf8d5ff3	-1.1044906
137	0xbf070314	-0.5273907
138	0x3e14f84e	0.14547846
139	0xbed5a8ad	-0.41730252
140	0xbf1c0fec	-0.60961795
141	0xbf01eabf	-0.5074882
142	0xbefc911f	-0.4932947
143	0xbea5da05	-0.32392898
144	0xbe6d2729	-0.2315947
145	0xbf21a015	-0.6313489
146	0xbe9a5d6e	-0.30149406
147	0xbe5b98fb	-0.21445076
148	0xbe82bfd6	-0.25536984
149	0xbf491469	-0.7854677
150	0xbe8f5797	-0.27996513
151	0xbf4daf67	-0.8034577
152	0xbf5c3bdd	-0.86028844
153	0xbf25e408	-0.64801073
154	0xbf1dfe1b	-0.6171586
155	0xbef92dee	-0.48667854
156	0xbf0e644f	-0.5562181
157	0xbe7eb03c	-0.24871916
158	0xbf167999	-0.58779293
159	0xbce21572	-0.027598117
160	0xbed93be8	-0.42428517
161	0xbf38c99e	-0.72182643
162	0xbec3d8fd	-0.38251486
163	0xbe444fb1	-0.19171025
164	0xbe61423a	-0.2199792
165	0xbf393422	-0.72345173
166	0xbedf1a36	-0.43574685
167	0xbf02be60	-0.5107174
168	0xbf022fa7	-0.5085396
169	0xbde420f7	-0.111391
170	0xbe67448c	-0.22584742
171	0xbef94b12	-0.48690087
172	0xbf011ec2	-0.5043756
173	0xbee9a314	-0.4563223
174	0xbee60a55	-0.44929758
175	0xbf156459	-0.58356243
176	0xbe06b0fa	-0.13153449
177	0xbea0e98f	-0.3142819
178	0xbedf52f3	-0.43617973
179	0xbe761ba5	-0.24033983
180	0xbf16235c	-0.58647704
181	0xbed859ba	-0.42255956
182	0xbef58862	-0.47955614
183	0xbf509c73	-0.8148872
184	0x3d81bd6b	0.06334957
185	0xbe1b02bd	-0.15137763
186	0xbee9eb74	-0.4568745
187	0xbe45054b	-0.192403
188	0xbf033329	-0.5124994
189	0xbf0ddb0d	-0.5541237
190	0xbd0463a4	-0.032321587
191	0xbf130d42	-0.57442105
192	0xbf08dc02	-0.53460705
193	0xbe79fde3	-0.24413256
194	0xbeb817e8	-0.3595574
195	0xbf570c7a	-0.8400341
196	0xbedd7040	-0.43249702
197	0xbf36a82f	-0.7135038
198	0xbea44ef5	-0.3209149
199	0x3e0f856c	0.1401574
200	0xbd5e89aa	-0.054330505
201	0x3dd92d09	0.10604293
202	0x3d880701	0.06641961
203	0x3e7c6f0f	0.2465174
204	0x3ddb8c58	0.10720128
205	0x3c8d5eac	0.017257057
206	0x3c176299	0.009239816
207	0x3eaa1c2e	0.33224624
208	0xbe17020f	-0.14746879
209	0xbe257bb9	-0.16160478
210	0x3e03a72d	0.12856741
211	0xbca2bd05	-0.019865522
212	0x3d758a29	0.059946213
213	0xbe1450f3	-0.14484005
214	0x3e972ecc	0.2952789
215	0x3e45d4d6	0.19319472
216	0xbeb594ca	-0.3546508
217	0x3bbe5f80	0.0058097243
218	0xbe64bac8	-0.22336876
219	0xbdbaa8ad	-0.091142036
220	0x3d0f2378	0.034945935
221	0x3eac4855	0.33648935
222	0xbd976ddb	-0.07394
223	0x3e567747	0.20943938
224	0x3e5dba8f	0.21653198
225	0x3df99e79	0.121884294
226	0x3ecd2795	0.4006926
227	0x3e15b34a	0.14619175
228	0x3e03b618	0.12862432
229	0x3d0a381b	0.033744913
230	0x3e54326d	0.20722361
231	0x3ddac8df	0.10682844
232	0xbd29a38d	-0.04141574
233	0x3de9a207	0.114078574
234	0xbdb1627a	-0.08661361
235	0xbe0ed008	-0.13946545
236	0xbdce5316	-0.10074441
237	0x3e291e62	0.16515496
238	0x3e58c314	0.21168166
239	0xbd452ef7	-0.048140492
240	0x3e6f64d1	0.23378302
241	0xbecde1cd	-0.40211335
242	0x3eaa721c	0.33290184
243	0xbe2a91fe	-0.16657254
244	0x3eb3a556	0.3508708
245	0x3c65b8ea	0.014021138
246	0xbcc52f66	-0.024070453
247	0xbb9c4294	-0.004768679
248	0xbd573b1c	-0.052546605
249	0x3df3db84	0.11907104
250	0xbe73f01f	-0.23822068
251	0xbe65238d	-0.22376843
252	0xbe2ba37a	-0.1676158
253	0xbe42c919	-0.19022025
254	0xbe26f341	-0.16303732
255	0xbda92e53	-0.08260789

bias_hh_l0 f4 [300]
0	0xbebf0578	-0.3730886
1	0xbeef9515	-0.46793428
2	0x3e7d39b6	0.24729046
3	0xbec89d32	-0.3918243
4	0xbe38e44e	-0.18055841
5	0xbe3850ea	-0.17999616
6	0xbea55387	-0.3229029
7	0xbc630b13	-0.013857621
8	0xbd88aff4	-0.066741854
9	0x3e011d7f	0.12608908
10	0xbea68ddd	-0.32530108
11	0xbe1d0e82	-0.15337566
12	0xbe6e1cb9	-0.23253144
13	0xbe5bb9ea	-0.2145764
14	0xbdcc1ee7	-0.09966832
15	0xbe0f6627	-0.14003812
16	0xbe39cac9	-0.18143763
17	0xbea95f8c	-0.3308071
18	0xbdb558eb	-0.088548504
19	0xbe0cd48d	-0.13752957
20	0xbed5b417	-0.4173896
21	0xbe524522	-0.20534185
22	0xbdae31d1	-0.085055955
23	0x3ddb93e9	0.10721571
24	0xbe86a42f	-0.26297137
25	0xbd95b9a0	-0.07310796
26	0xbe521f7e	-0.20519826
27	0xbcae330f	-0.021264581
28	0xbea39f6d	-0.3195757
29	0x3cbeb166	0.02327795
30	0xbec12dc1	-0.3773022
31	0xbe8270a9	-0.25476578
32	0xbe7a7bc6	-0.24461278
33	0xbecef3b2	-0.404203
34	0xbcc116e8	-0.023570493
35	0xbe3f39aa	-0.18674341
36	0xbea9782e	-0.33099502
37	0xbdbbe437	-0.09174388
38	0xbd4a5989	-0.049401794
39	0x3da5639a	0.08075638
40	0xbf00cb9f	-0.503107
41	0xbe090ff9	-0.13385
42	0xbe16e0f3	-0.14734249
43	0xbe081c4a	-0.13292041
44	0x3d9bcef2	0.07607831
45	0xbe0842d4	-0.13306743
46	0xbea69218	-0.32533336
47	0xbe2fb7c4	-0.17159945
48	0xbf0440a1	-0.51661116
49	0xbd0e8166	-0.034791373
50	0xbe35444c	-0.17701834
51	0xbd3e86bc	-0.04651521
52	0xbebe9226	-0.37220877
53	0x3e0a20e7	0.13489114
54	0xbeb235ba	-0.34806615
55	0xbe0ed5c5	-0.13948734
56	0xbf20a660	-0.6275387
57	0xbe680d67	-0.22661363
58	0x3dacd51a	0.084390834
59	0xbd8b3404	-0.067970306
60	0xbe99e72b	-0.3005918
61	0xbecab75b	-0.39593014
62	0x3e13b89c	0.14425892
63	0x3e377159	0.17914332
64	0x3e05ea0a	0.1307756
65	0x3e76014f	0.24023937
66	0xbd1f8cdb	-0.03895269
67	0xbdcbec16	-0.09957139
68	0xbe38747d	-0.18013187
69	0xbd04b366	-0.03239765
70	0x3e39a1ae	0.18128082
71	0xbbd40264	-0.0064700115
72	0x3cefe587	0.029284252
73	0xbe843b8a	-0.25826675
74	0x3d2d54e8	0.0423173
75	0xbe4c2e3c	-0.19939512
76	0xbe77a973	-0.24185733
77	0xbe919ced	-0.28440037
78	0x3e0161d8	0.1263498
79	0x3eaf1411	0.34194997
80	0xbe7197c2	-0.23593047
81	0xbe8f2ce0	-0.27963924
82	0x3ed9c12c	0.4253019
83	0xbebc0632	-0.36723477
84	0xbe97ecd7	-0.29672882
85	0xbe0bd1e5	-0.13654287
86	0xbed71e88	-0.4201548
87	0x3e1a8131	0.15088345
88	0xbecb3115	-0.39685884
89	0xbe56c15d	-0.209722
90	0xbe40067f	-0.18752478
91	0xbe107c71	-0.1410997
92	0xbd99c534	-0.07508317
93	0xbe066a6f	-0.13126539
94	0xbe6523b6	-0.22376904
95	0xbe59ba06	-0.21262369
96	0xbdd07dd4	-0.1018025
97	0xbe77603e	-0.24157807
98	0xbe442204	-0.19153601
99	0x3f035694	0.5130398
100	0xbf34ab93	-0.705743
101	0xbe995cab	-0.29953513
102	0xbf0fd4d3	-0.5618412
103	0xbf62bb13	-0.885667
104	0xbf26680f	-0.6500253
105	0xbf0622d8	-0.5239692
106	0xbea40183	-0.32032403
107	0x3cc2a637	0.023760898
108	0xbe5372b1	-0.2064922
109	0xbe863c25	-0.26217762
110	0xbe921ed2	-0.2853914
111	0xbf490ba0	-0.78533363
112	0xbf1d7d7d	-0.61519605
113	0xbf1ef3c7	-0.62090725
114	0xbea36ac8	-0.31917405
115	0xbf237599	-0.63851315
116	0x3d2aeb64	0.041728392
117	0xbed45019	-0.4146736
118	0xbfa1cc3a	-1.264045
119	0xbe9e0021	-0.30859473
120	0x3e261350	0.16218305
121	0xbe5eed0b	-0.21770112
122	0xbf346a62	-0.7047483
123	0xbe266487	-0.16249286
124	0xbde3a4c3	-0.1111541
125	0xbf5def7b	-0.86693543
126	0xbf21fb35	-0.63273937
127	0xbdb41d77	-0.087946825
128	0xbf1ba116	-0.6079267
129	0x3c72cda1	0.014819534
130	0xbeba165a	-0.36345178
131	0xbdc549ce	-0.09633218
132	0xba0ddfa4	-0.0005412048
133	0xbf35e7d2	-0.71056855
134	0xbe3d0e2c	-0.18462437
135	0xbf352ad5	-0.7076848
136	0xbf85c886	-1.045182
137	0xbf042f70	-0.51634884
138	0x3dc45e67	0.09588318
139	0xbee150d5	-0.44006982
140	0xbf37f6af	-0.71860784
141	0xbeec84e2	-0.46195132
142	0xbefb20e7	-0.4904854
143	0xbeb6e557	-0.35721847
144	0xbea34d55	-0.31894937
145	0xbf277beb	-0.6542346
146	0xbed8432e	-0.42238754
147	0xbe967c6a	-0.29391795
148	0xbe9b0e78	-0.30284476
149	0xbf3c6854	-0.7359669
150	0xbe7b2421	-0.24525501
151	0xbf2e746d	-0.681464
152	0xbf35e0a3	-0.71045893
153	0xbf2740a4	-0.6533301
154	0xbf2c7e5b	-0.67380303
155	0xbef298d2	-0.47382218
156	0xbefa23f0	-0.48855543
157	0xbeb5be02	-0.35496527
158	0xbf30fdf9	-0.6913753
159	0xbe22b393	-0.15888815
160	0xbf0c933e	-0.54912174
161	0xbf15822e	-0.58401763
162	0xbe550b6e	-0.20805141
163	0xbe62ec2f	-0.2216041
164	0xbe611c5e	-0.21983477
165	0xbf23550c	-0.63801646
166	0xbf1efeb3	-0.6210739
167	0xbf143870	-0.57898617
168	0xbf13daf6	-0.5775598
169	0xbddc60d7	-0.10760658
170	0xbe998037	-0.29980633
171	0xbf1cc838	-0.6124301
172	0xbf26fa27	-0.6522545
173	0xbf049ab0	-0.51798534
174	0xbea4876b	-0.32134566
175	0xbf1b3030	-0.60620403
176	0xbdfdaddb	-0.12386676
177	0xbea3ab17	-0.3196647
178	0xbf0538a7	-0.5203957
179	0xbe99b339	-0.3001955
180	0xbf16f4d2	-0.58967316
181	0xbeb65f3e	-0.3561954
182	0xbedec9c0	-0.43513298
183	0xbf55bc23	-0.834902
184	0x3dc108fa	0.0942554
185	0xbe87e957	-0.26545212
186	0xbf045827	-0.5169701
187	0xbea1f2e2	-0.31630617
188	0xbf1cd263	-0.61258525
189	0xbf04d738	-0.518909
190	0xbe02d5df	-0.12776898
191	0xbf047d28	-0.51753473
192	0xbf09ff62	-0.5390531
193	0xbe588602	-0.2114487
194	0xbe9ade0c	-0.30247533
195	0xbf3335ee	-0.70004165
196	0xbeade0ac	-0.33960474
197	0xbf4147ff	-0.7550048
198	0xbec1765d	-0.37785617
199	0x3e45976a	0.19296041
200	0x3dba97dd	0.09110997
201	0x3de9894b	0.1140314
202	0x3edc16e9	0.4298623
203	0x3ebe255c	0.37137878
204	0x3e93c09d	0.2885789
205	0xbe2195d3	-0.1577981
206	0xbce28d39	-0.02765523
207	0x3ec2a5d1	0.38017133
208	0xbddd28fb	-0.10798832
209	0xbe69d79f	-0.22836159
210	0x3c120685	0.008912687
211	0x3d4fec7e	0.050762646
212	0x3e95f3b1	0.29287484
213	0xbe79b310	-0.24384713
214	0x3e630aca	0.22172084
215	0x3cd6c6b6	0.0262178
216	0xbed264cc	-0.41092527
217	0xbc97efc9	-0.018546956
218	0xbdb77d7c	-0.08959481
219	0x3d61320d	0.054979373
220	0xbe5329fa	-0.20621482
221	0x3e803fa3	0.2504855
222	0x3d49ea65	0.0492958
223	0x3e26e311	0.16297556
224	0x3e28906d	0.16461344
225	0xba8c4d31	-0.0010704157
226	0x3ec464cd	0.38358155
227	0x3ea5641e	0.32302946
228	0x3cbe8085	0.023254642
229	0xbf0aeb4a	-0.5426527
230	0x3ceb20db	0.02870219
231	0x3e8a3643	0.26994523
232	0x3e1a00c0	0.15039349
233	0x3e3ee188	0.18640721
234	0xbd77a034	-0.060455516
235	0x3d2a6719	0.041602228
236	0xbe423347	-0.18964873
237	0x3d7f42f0	0.062319696
238	0x3e196d5c	0.14983124
239	0xbee105f7	-0.43949863
240	0xbe129b99	-0.14317168
241	0xbf19a775	-0.60021144
242	0xbd4f4dfe	-0.05061149
243	0x3ec4ec63	0.384616
244	0x3e63e798	0.22256315
245	0xbe0da7e6	-0.1383358
246	0xbe2d99e5	-0.16953237
247	0x3a76143c	0.00093871704
248	0xbe864064	-0.26221
249	0xbd953eb0	-0.07287347
250	0xbe90d947	-0.2829077
251	0xbead85ae	-0.33891052
252	0xbeaffcc9	-0.34372547
253	0x3d891577	0.06693547
254	0xbe1037f0	-0.14083838
255	0x3cb38d5c	0.021917991

weight_ih_l1 f4 [300, 100]
0	0xbe613f3e	-0.21996781
1	0xbf4aa4af	-0.7915754
2	0x3fa8f010	1.3198261
3	0xbea4c153	-0.32178745
4	0x3e10b9c6	0.14133367
5	0x3dc91dd1	0.0982014
6	0xbf924120	-1.1426125
7	0xbec88996	-0.3916747
8	0xbe92e2ab	-0.2868856
9	0xbda9d1f1	-0.08291996
10	0x3ebe2bfe	0.37142938
11	0x3f07c937	0.53041404
12	0xbd57e9a2	-0.052713044
13	0xbf0d2c41	-0.5514565
14	0xbeee53dc	-0.46548355
15	0xbf8e50d4	-1.1118417
16	0xbeaf6f3a	-0.34264547
17	0xbbdf22de	-0.0068095764
18	0x3cbf29f8	0.023335442
19	0xbd1a35df	-0.03764903
20	0xbebdb41f	-0.37051484
21	0xbd9c6938	-0.076372564
22	0xbe3d18e6	-0.18466529
23	0x3f50e903	0.8160555
24	0x3ec28038	0.37988448
25	0x3de77905	0.113023795
26	0x3f7c7c69	0.98627335
27	0x3e62569a	0.22103348
28	0x3e062c43	0.13102822
29	0xbe8e79e6	-0.27827376
30	0x3ea9fde2	0.3320151
31	0xbea79843	-0.32733354
32	0x3e87b29f	0.26503465
33	0x3f34382b	0.70398206
34	0x3ddaba87	0.106801085
35	0x3e42cbb2	0.19023016
36	0xbef93006	-0.4866945
37	0xbefa14fe	-0.4884414
38	0xbef25f0f	-0.4733815
39	0xbdf6af75	-0.120451845
40	0xbe81ece3	-0.25376043
41	0x3dfcb1ab	0.12338575
42	0x3f289413	0.65850943
43	0x3e951823	0.29119977
44	0x3ecb539c	0.39712226
45	0x3ed19237	0.40931866
46	0xbe902c28	-0.2815869
47	0x3dbf63b8	0.09345192
48	0x3f58182e	0.84411895
49	0xbd157e71	-0.036497537
50	0x3e1a1555	0.150472
51	0xbe2994e8	-0.1656071
52	0xbedeb70f	-0.43499038
53	0x3e4a9afd	0.19785686
54	0x3f7440f0	0.95411587
55	0x3ebcce3c	0.36876094
56	0xbeb8deaa	-0.3610738
57	0x3f0f2fd8	0.5593238
58	0xbe102642	-0.14077094
59	0x3f8df76f	1.1091136
60	0xbf03345f	-0.51251787
61	0x3da43289	0.08017451
62	0x3eb080f9	0.34473398
63	0xbefee7db	-0.49786267
64	0x3e074b35	0.13212283
65	0xbde2f36a	-0.11081584
66	0xbf8cc8ec	-1.0998816
67	0x3e1e2bd1	0.15446402
68	0xbf729dd9	-0.94772106
69	0x3f393ab3	0.7235519
70	0x3f87dd9d	1.0614506
71	0xbf6670bf	-0.90015787
72	0xbef6fbf0	-0.48239088
73	0x3eb22037	0.34790203
74	0x3dbc6fdc	0.09201023
75	0xbe7cae8e	-0.24675962
76	0xbefe76a0	-0.4969988
77	0xbdeb70b5	-0.114961065
78	0xbe35db02	-0.17759326
79	0xbf874bd7	-1.057002
80	0xbe62b26c	-0.22138375
81	0xbefbe14f	-0.49195334
82	0xbca30590	-0.019900113
83	0xbf730511	-0.94929606
84	0xbe907c6e	-0.28219932
85	0xbbc60944	-0.006043585
86	0x3d7081d8	0.05871758
87	0xbd948350	-0.07251608
88	0x3d89a66b	0.06721195
89	0x3f112903	0.56703204
90	0xbf0f43bc	-0.5596273
91	0x3d918f19	0.07107372
92	0x3e0b68fb	0.13614266
93	0x3e30145b	0.17195265
94	0xbf25949e	-0.64679897
95	0x3f072cb4	0.52802587
96	0x3ee7f428	0.45303464
97	0xbf2c6d94	-0.673547
98	0xbe9ba39f	-0.3039827
99	0x3e215418	0.15754735
100	0x3ef2762f	0.47355792
101	0xbf681730	-0.9066038
102	0xbe081448	-0.13288987
103	0xbdd54a46	-0.10414557
104	0x3edfa019	0.43676832
105	0xbe537e3e	-0.20653626
106	0xbf20a591	-0.62752634
107	0x3f1b6951	0.60707575
108	0x3b9a4378	0.00470775
109	0xbecbdb81	-0.39815906
110	0xbf0c67fb	-0.5484616
111	0xbe9f3e94	-0.3110243
112	0x3e6bd522	0.23030522
113	0xbf6782a0	-0.9043369
114	0x3b576a2c	0.003286968
115	0xbd8d97f7	-0.069137506
116	0x3de9f1d8	0.11423081
117	0x3c1b1216	0.009464761
118	0x3ef95808	0.48699975
119	0x3f8e1b83	1.1102146
120	0xbe419cf8	-0.18907535
121	0xbd82b7cd	-0.063827135
122	0x3e2aefec	0.16693085
123	0x3dffef8a	0.1249686
124	0xbe414f33	-0.18877868
125	0x3f0c25b7	0.5474505
126	0x3d0571f0	0.032579362
127	0xbf20197e	-0.625389
128	0x3e8c5beb	0.27413878
129	0xbf185007	-0.5949711
130	0x3e738469	0.23780979
131	0x3e0cc1dc	0.13745826
132	0xbf38ee54	-0.7223866
133	0xbe85e3c2	-0.26150328
134	0xbeaeeb5d	-0.34163943
135	0x3f7ddeac	0.99167895
136	0x3e15738c	0.14594859
137	0x3cc35014	0.023841895
138	0xbee860d1	-0.45386365
139	0x3e825d48	0.25461793
140	0x3e5c867d	0.21535678
141	0x3cf3eb61	0.029775323
142	0x3eca7f84	0.39550412
143	0x3dc82fb1	0.097747214
144	0x3f12b74c	0.5731094
145	0x3e3c1fc5	0.18371494
146	0xbf34c24a	-0.7060896
147	0xbf1810e8	-0.59400797
148	0xbf98a663	-1.1925777
149	0x3eff1979	0.49824122
150	0x3df2c4b9	0.11853928
151	0xbe5f8a86	-0.21830186
152	0xbe32a99f	-0.17447518
153	0x3db97cd8	0.09057015
154	0x3f951ee0	1.1650047
155	0x3c0ed14e	0.008716894
156	0xbf2532f5	-0.6453088
157	0x3ef9d8e6	0.48798293
158	0xbf9a6ae8	-1.2063875
159	0xbdb562bb	-0.08856722
160	0xbf09bfb9	-0.5380817
161	0xbf411404	-0.75421166
162	0x3e6ae939	0.2294053
163	0x3e06046e	0.13087627
164	0x3e0a148b	0.13484399
165	0xbf09a2b6	-0.537639
166	0xbefb468f	-0.4907727
167	0xbe479ef1	-0.19494225
168	0xbc5e5e97	-0.013572357
169	0x3de1bbec	0.110221714
170	0xbe6d4286	-0.23169908
171	0x3f0f1977	0.5589823
172	0x3eab6b73	0.33480415
173	0x3ec7bd89	0.3901179
174	0x3e2f5d07	0.17125331
175	0xbd4414a7	-0.047871258
176	0x3edd2801	0.43194583
177	0x3ead791e	0.33881468
178	0xbef738bf	-0.4828548
179	0x3e0ea73d	0.13930984
180	0x3f3185de	0.6934489
181	0xbf2b705e	-0.66968334
182	0xbf1333e0	-0.5750103
183	0x3fae7d69	1.3632022
184	0x3c3d5101	0.011554957
185	0xbf580d76	-0.8439554
186	0xbf43637e	-0.7632369
187	0xbebe881f	-0.37213227
188	0x3f1a2041	0.60205466
189	0x3f257c2b	0.6464259
190	0x3e6ef942	0.23337272
191	0x3dc040bc	0.09387347
192	0x3f0b1bea	0.5433947
193	0x3f68b0cd	0.90894777
194	0xbefceb2e	-0.49398178
195	0x3e1570f3	0.14593868
196	0xbf108ad9	-0.56461865
197	0x3ef14ba3	0.4712802
198	0xbf8783ca	-1.0587094
199	0x3ea875ef	0.32902476
200	0x3f44ead5	0.76920825
201	0x3fb6d78d	1.4284531
202	0x3d55b3cd	0.052173425
203	0xbe4a09b0	-0.19730258
204	0xbf276e32	-0.6540252
205	0xbe24f82f	-0.161103
206	0x3f931ea8	1.149373
207	0xbec4fe73	-0.3847538
208	0xbea3f62f	-0.3202376
209	0xbf52ef08	-0.8239598
210	0xbf2f4354	-0.6846211
211	0x3fb1576f	1.3854808
212	0x3f2f2b15	0.6842511
213	0x3e411a61	0.18857719
214	0xbf3cf1d3	-0.73806494
215	0x3f5679d7	0.8377966
216	0x3dfd8ac7	0.12379985
217	0xbdeb3d5c	-0.11486313
218	0x3e1ac13a	0.15112773
219	0xbe4a45b5	-0.19753154
220	0x3afd812c	0.0019340864
221	0x3bca271e	0.006169214
222	0x3f49fa25	0.78897315
223	0xbe480321	-0.19532444
224	0xbf4bc312	-0.7959453
225	0xbe2a68c9	-0.16641535
226	0xbf16d8cd	-0.5892456
227	0x3f1be5a6	0.6089729
228	0x3f41231f	0.75444216
229	0xbf04d802	-0.518921
230	0x3c105406	0.008809095
231	0xbe5323f8	-0.2061919
232	0x3f460efa	0.773666
233	0x3f0a06da	0.53916705
234	0xbd56037e	-0.052249424
235	0xbdd34374	-0.103156
236	0x3f4f83fe	0.8106078
237	0xbdf891d1	-0.12137187
238	0x3f422b39	0.758472
239	0x3f0e81de	0.5566691
240	0xbeb60a60	-0.3555479
241	0xbeb7353c	-0.35782802
242	0x3f3aa5ac	0.72909045
243	0xbe098828	-0.13430846
244	0x3f888da0	1.066822
245	0x3f9b6e3d	1.2143017
246	0x3fab4c34	1.338263
247	0xbef5dcf0	-0.48020124
248	0xbf18128f	-0.5940332
249	0xbe071ca5	-0.13194521
250	0xbf127dd5	-0.57223254
251	0x3f5b97d7	0.85778564
252	0x3f5d7ace	0.8651551
253	0x3da3a4be	0.079904065
254	0xbf421fa2	-0.7582952
255	0xbf2a3785	-0.66490966

weight_hh_l1 f4 [300, 100]
0	0x3e0532cb	0.13007657
1	0x3e585e6d	0.2112977
2	0xbf292b18	-0.6608138
3	0x3f466907	0.7750401
4	0x3f7628b5	0.96155864
5	0x3ebad66a	0.3649171
6	0xbf2e52ab	-0.6809489
7	0x3ea1ab95	0.3157622
8	0x3f126a53	0.5719349
9	0xbeda370c	-0.42620122
10	0x3da0a1c6	0.07843356
11	0xbeadc528	-0.3393948
12	0xbd67d45d	-0.05659901
13	0x3e85fa28	0.26167417
14	0xbd46bf60	-0.048522353
15	0xbe02ae4a	-0.12761799
16	0x3f044617	0.5166945
17	0xbf092820	-0.5357685
18	0xbd3deb73	-0.04636712
19	0xbdb1ccb2	-0.08681621
20	0x3e239867	0.15976106
21	0xbe26090a	-0.16214386
22	0x3e019d42	0.12657645
23	0xbece30d2	-0.40271622
24	0xbd3facb2	-0.046795554
25	0xbe5d5aeb	-0.21616714
26	0x3db29eda	0.08721705
27	0x3eee0bac	0.4649328
28	0xbf177de7	-0.59176487
29	0x3f041b2b	0.51603955
30	0x3f07081a	0.52746737
31	0xbd4064b7	-0.04697105
32	0xbf36f68b	-0.71469945
33	0xbd5b9f8c	-0.053618953
34	0xbf1f1ce1	-0.6215344
35	0xbee1f101	-0.44129184
36	0xbf1002ff	-0.5625457
37	0xbf10cde2	-0.5656415
38	0xbe11e902	-0.14249042
39	0x3dcc9fa4	0.099913865
40	0xbe9e9c7a	-0.30978757
41	0xbe9de346	-0.30837458
42	0xbefa3032	-0.48864895
43	0xbe05ee55	-0.13079198
44	0x3f0d6805	0.55236846
45	0x3f2537e4	0.6453841
46	0xbd3046fe	-0.043036453
47	0xbf052750	-0.5201311
48	0xbe30b028	-0.17254698
49	0x3e0255d4	0.12728053
50	0xbec1075d	-0.3770093
51	0x3f71e522	0.94490254
52	0x3e2bf598	0.16792905
53	0x3f593d21	0.848589
54	0x3e5874f5	0.21138366
55	0x3f84c015	1.0371119
56	0xbe97546c	-0.29556596
57	0xbeae5df9	-0.3405607
58	0xbf01678d	-0.5054863
59	0xbf91db9c	-1.1395144
60	0xbdd0fd28	-0.10204536
61	0x3d234960	0.039864898
62	0x3d9b4094	0.07580677
63	0x3f038a01	0.5138245
64	0x3e13880d	0.14407368
65	0x3e9bd93c	0.30439174
66	0x3e1a2f47	0.15057097
67	0xbe57c2c3	-0.2107039
68	0x3ed195d1	0.40934613
69	0x3cd45b5a	0.025922466
70	0x3e6280cc	0.22119445
71	0xbfde10ac	-1.7348838
72	0xbd90c4ac	-0.07068762
73	0xbcdceaa5	-0.026967356
74	0xbede4e79	-0.43419245
75	0xbe6eaac3	-0.23307328
76	0xbd936e92	-0.07198824
77	0x3f3c0490	0.7344446
78	0xbd94ea35	-0.07271234
79	0x3f00c3e8	0.5029893
80	0xbf0760f8	-0.5288234
81	0x3ea2adde	0.31773275
82	0xbe125e7b	-0.14293854
83	0xbdd0b053	-0.10189881
84	0x3e5a5782	0.21322444
85	0xbf8f4017	-1.1191434
86	0xbe684154	-0.2268117
87	0x3f3c5849	0.7357221
88	0xbebece1e	-0.3726663
89	0xbfc113ac	-1.5084128
90	0xbdb596e8	-0.08866674
91	0xbe90c387	-0.28274176
92	0x3ec03b4e	0.37545246
93	0xbe882cd4	-0.265967
94	0x3eb40ea5	0.35167423
95	0x3e895d0f	0.2682881
96	0x3eb73fe6	0.35790938
97	0xbeefc127	-0.4682705
98	0x3d6121a7	0.054963734
99	0xbe022184	-0.12708098
100	0x3d9c6b42	0.07637645
101	0x3f1836c8	0.5945859
102	0x3cd255f2	0.025675748
103	0x3ce11e94	0.027480401
104	0x3e450d7b	0.19243424
105	0xbdeff23e	-0.11716126
106	0x3ea24eff	0.31700894
107	0x3ceddc8a	0.029035825
108	0xbeaa7d32	-0.3329864
109	0x3eff39f8	0.49848914
110	0xbcdb8422	-0.026796404
111	0xbdfdfa65	-0.124012746
112	0xbd98cbd3	-0.074607514
113	0xbe29e728	-0.16592085
114	0x3dc6a21a	0.09698887
115	0xbf3b7079	-0.73218495
116	0x3ee2b6d6	0.44280118
117	0x3d754a29	0.059885178
118	0xbe035bb9	-0.12827958
119	0xbf0716cd	-0.52769166
120	0xbd44c909	-0.048043285
121	0x3e80662e	0.25077957
122	0x3e18fd36	0.14940342
123	0x3d90feb6	0.07079832
124	0xbd422719	-0.047400568
125	0x3d5f6106	0.054535888
126	0x3e912ae4	0.28353035
127	0x3ee338b6	0.44379205
128	0xbcc2d404	-0.023782738
129	0xbe8ee1aa	-0.27906543
130	0x3f31a250	0.69388294
131	0xbf99fa81	-1.2029573
132	0xbdc60de8	-0.09670621
133	0xbe36a783	-0.17837338
134	0x3d7b3a3f	0.061334845
135	0xbec01674	-0.3751713
136	0x3f058f17	0.5217146
137	0x3e326733	0.1742218
138	0xbf111bfe	-0.5668334
139	0xbdc057a3	-0.093917154
140	0xbdad5e3c	-0.084652394
141	0xbe1f9c52	-0.15586975
142	0x3f2bb76e	0.67076766
143	0x3ed0d42c	0.40786874
144	0x3bbfe651	0.0058563133
145	0x3eae3f16	0.34032506
146	0x3e402449	0.18763842
147	0x3ea0101d	0.31262293
148	0x3e250e2c	0.16118687
149	0xbefab016	-0.48962468
150	0x3f085fee	0.5327138
151	0x3ef7b8a2	0.4838305
152	0x3d0f9db0	0.035062492
153	0x3e388b7c	0.18021959
154	0xbdea6200	-0.11444473
155	0x3e05e851	0.13076903
156	0x3e642c8c	0.22282618
157	0x3d85dbdf	0.06536078
158	0x3eb831dd	0.35975543
159	0x3f4a475c	0.79015136
160	0x3e18bd90	0.14916062
161	0xbea178c4	-0.3153745
162	0xbdde93a5	-0.10868005
163	0xbe86915b	-0.26282772
164	0x3e7f52ed	0.24933977
165	0xbeb289a3	-0.34870633
166	0x3ec99265	0.39369503
167	0x3e91b69d	0.28459635
168	0xbd558d20	-0.05213654
169	0x3ea9f24f	0.3319268
170	0x3d47a672	0.04874272
171	0xbeade0bf	-0.3396053
172	0xbea3827a	-0.31935483
173	0xbf0973bc	-0.5369222
174	0xbea936d1	-0.33049634
175	0x3b59039e	0.0033113728
176	0x3f074aaa	0.52848303
177	0x3e00d5a1	0.12581493
178	0x3ed78712	0.42095238
179	0x3ebb6960	0.36603832
180	0xbe38b588	-0.18037999
181	0x3e49ca92	0.1970618
182	0xbe4d24a6	-0.20033512
183	0xbf1accd1	-0.60468775
184	0xbebcd6ad	-0.36882535
185	0x3ea11cdc	0.3146733
186	0xbd500107	-0.05078223
187	0x3ea164d7	0.31522247
188	0x3e9d834f	0.30764243
189	0xbe9aaaa6	-0.3020832
190	0x3cfc4b9d	0.030797774
191	0x3e4903da	0.19630376
192	0xbebf1c50	-0.37326288
193	0x3bf3f266	0.0074446676
194	0x3f24e34d	0.64409333
195	0x3d404d7e	0.046948902
196	0x3cb97b82	0.0226419
197	0xbf230140	-0.6367378
198	0x3e5109dd	0.20413919
199	0xbf44d7f8	-0.7689204
200	0xbf00c185	-0.5029529
201	0xbe24e867	-0.1610428
202	0xbdd01336	-0.10159914
203	0x3f7428d8	0.9537482
204	0x3d83f8f5	0.06443969
205	0xbdea0551	-0.11426795
206	0x3cc5fd06	0.024168503
207	0xbe451d63	-0.19249491
208	0xbf10cf8d	-0.565667
209	0x3e8b013d	0.27149382
210	0xbf41099f	-0.75405306
211	0x3e84e949	0.25959232
212	0xbde3e773	-0.1112813
213	0x3f06c496	0.52643716
214	0xbea6ac59	-0.32553366
215	0x3e277e30	0.1635673
216	0x3ed3c2c8	0.41359544
217	0xbf072ee4	-0.52805924
218	0xbe90e42c	-0.2829908
219	0xbd220c92	-0.03956277
220	0xbd3ba926	-0.04581561
221	0x3e6ec376	0.2331675
222	0x3e47692c	0.19473714
223	0xbe9a27de	-0.3010854
224	0x3d30c8aa	0.04316012
225	0xbea0aaae	-0.31380218
226	0xbdd8e50b	-0.105905615
227	0xbe904edc	-0.28185165
228	0xbf0222b1	-0.50834185
229	0x3f9f2eb7	1.2436131
230	0x3d609917	0.054833498
231	0xba8746d0	-0.0010320786
232	0x3f2b7123	0.6696951
233	0x3d06bf59	0.032897327
234	0xbdd57485	-0.10422615
235	0xbe0cc25a	-0.13746014
236	0xbe62c18b	-0.22144143
237	0x3dad4cdb	0.08461925
238	0xbe482472	-0.19545153
239	0xbdb53ce2	-0.08849503
240	0x3f214fb0	0.6301222
241	0x3d59a761	0.05313814
242	0x3e691afe	0.22764203
243	0xbe681a54	-0.22666293
244	0xbe52ab68	-0.20573199
245	0xbfb00e12	-1.3754294
246	0xbe237b1e	-0.15964934
247	0xbf2982f7	-0.6621546
248	0xbef1525e	-0.47133154
249	0x3f18ce48	0.5968976
250	0x3eaf03f2	0.34182698
251	0x3f5b119a	0.8557373
252	0xbb8b1c96	-0.004245351
253	0xbe5ac836	-0.21365437
254	0x3e068f38	0.13140571
255	0x3f8dc6c8	1.1076288
